data.pth (torch, 8554 bytes, 6 tensors)

l1.weight f4 [8, 111]
0	0x3e8754ad	0.2643179
1	0xbeb3fd9b	-0.35154423
2	0x3ea52cb2	0.32260662
3	0x3e0f2c56	0.13981757
4	0x3f0e3c3d	0.55560666
5	0x3c54b95e	0.012983648
6	0xbe0b95a4	-0.13631302
7	0x3ea0d263	0.31410512
8	0xbf17cab5	-0.5929368
9	0x3f3377e8	0.7010484
10	0x3f2a8c12	0.6661998
11	0xbe95b688	-0.29240823
12	0xbeb5ac7a	-0.35483152
13	0xbcffbc35	-0.031217674
14	0xbe011373	-0.12605076
15	0xbe5e2a6d	-0.21695872
16	0x3f208b9c	0.62713027
17	0xbeae26b4	-0.34013903
18	0x3efb6e37	0.49107525
19	0xbf09d2b7	-0.5383715
20	0x3e28763f	0.16451357
21	0x3f4fad17	0.8112349
22	0xbe7fdd98	-0.24986875
23	0x3f0792d8	0.5295844
24	0xbf11493d	-0.5675238
25	0xbebe2532	-0.37137753
26	0xbf446361	-0.7671414
27	0xbdee6c6c	-0.116417736
28	0x3b894e35	0.004190231
29	0x3f1723e9	0.5903917
30	0x3ed74bd9	0.42050055
31	0xbe2d0785	-0.168974
32	0x3f774fc8	0.9660611
33	0x3e3fece0	0.18742704
34	0x3e3837b2	0.17989996
35	0x3f0799fd	0.5296934
36	0x3e6212f3	0.22077541
37	0xbeebde83	-0.460682
38	0x3ed9051d	0.42386714
39	0x3dc594f6	0.09647553
40	0xbcb992a1	-0.022652926
41	0xbe5c9568	-0.21541369
42	0x3e89f70a	0.26946288
43	0xbe0c9377	-0.13728128
44	0xbe87e3af	-0.26540896
45	0xbd8e2daf	-0.06942307
46	0xbe81509a	-0.25256807
47	0x3eed4f2c	0.46349466
48	0xbe9c7a88	-0.30562234
49	0xbe978c17	-0.29599068
50	0x3f155553	0.5833332
51	0x3f0a8e1e	0.54123104
52	0x3f36af82	0.71361554
53	0x3ee528d0	0.447577
54	0x3f84e733	1.0383056
55	0xba8b8f83	-0.0010647628
56	0xbebc56f8	-0.36785102
57	0xbe52557e	-0.20540425
58	0xbe7c3926	-0.24631175
59	0xbd662b28	-0.0561935
60	0xbeaf1ef0	-0.3420329
61	0xbc5bf777	-0.013425699
62	0xbe706f9d	-0.23480077
63	0x3e7f69e0	0.24942732
64	0x3f1a2d53	0.6022541
65	0x3eca2313	0.39479885
66	0x3e7852f8	0.242504
67	0xbf2257fe	-0.63415515
68	0xbeaf6240	-0.34254646
69	0xbe196541	-0.14980032
70	0x3e7fe397	0.24989162
71	0x3ef6780c	0.48138463
72	0xbe473719	-0.19454612
73	0xbe3d7967	-0.18503343
74	0x3e24b33d	0.16083999
75	0xbe003e29	-0.12523712
76	0xbe166044	-0.1468516
77	0xbed2bbfa	-0.4115904
78	0x3f661b92	0.8988582
79	0xbe847aa5	-0.2587482
80	0x3f035235	0.5129731
81	0x3f0f787f	0.5604324
82	0xbe280ae1	-0.164104
83	0xbe5f4314	-0.21802932
84	0x3f2ca287	0.674355
85	0x3ec7901d	0.38977137
86	0xbe7a84e2	-0.24464753
87	0x3e9e3455	0.308993
88	0xbc3c6fe9	-0.011501291
89	0xbefb5ed3	-0.49095783
90	0x3ec1de4a	0.37864906
91	0x3ebc6a29	0.36799744
92	0x3c8dd6ef	0.017314402
93	0xbbc71dd6	-0.006076555
94	0xbd61a864	-0.05509223
95	0x3f19588f	0.59900755
96	0xbcd2486a	-0.025669295
97	0x3f64a439	0.89313084
98	0x3f0e6f20	0.55638313
99	0x3d0ff366	0.035144232
100	0xbd8821af	-0.0664705
101	0x3f3198a6	0.6937355
102	0x3e3878ab	0.18014781
103	0xbe552225	-0.20813806
104	0xbeabe89b	-0.335759
105	0xbdc2e885	-0.09517006
106	0xbdadafba	-0.08480783
107	0x3f4eb9ed	0.8075245
108	0xbe9a3583	-0.3011895
109	0xbea212f2	-0.3165508
110	0xbe8917b1	-0.26775888
111	0x3e0e9317	0.13923298
112	0xbe6c6207	-0.2308427
113	0x3e5b84b8	0.21437347
114	0x3e324f7a	0.1741313
115	0x3e0a8cd9	0.13530292
116	0xbe59be20	-0.21263933
117	0xbe973b4f	-0.29537436
118	0xbebb4b1e	-0.36580747
119	0xbe2d7fa0	-0.16943216
120	0x3f216089	0.63037926
121	0x3ef112e7	0.47084734
122	0x3dbe04f3	0.09278288
123	0x3e4a3349	0.19746126
124	0x3f03393a	0.51259196
125	0x3e9234dd	0.28555956
126	0x3e8be989	0.2732661
127	0x3f058bf4	0.52166677
128	0x3d0c249c	0.0342146
129	0x3e205234	0.15656358
130	0xbf3e33ef	-0.74297994
131	0xbeb762df	-0.3581762
132	0xbf010206	-0.5039371
133	0xbeb151e7	-0.346328
134	0x3f031937	0.5121035
135	0xbea713af	-0.32632205
136	0xbefa7c2b	-0.48922858
137	0x3bf57244	0.007490428
138	0x3e55afdc	0.20867866
139	0xbef1cf31	-0.47228387
140	0x3f0d4062	0.55176365
141	0x3d771094	0.060318545
142	0x3f1ee59f	0.62069124
143	0x3f20f0bc	0.6286733
144	0xbe88230b	-0.26589236
145	0xbd8f3e5a	-0.069943145
146	0x3ef0bc01	0.47018436
147	0x3d2649c9	0.04059771
148	0xbe5e6d16	-0.217213
149	0x3ea44e1c	0.32090843
150	0xbdf2c114	-0.11853233
151	0xbe73c253	-0.23804598
152	0x3e54df57	0.20788322
153	0x3dbb522d	0.09146533
154	0x3f0f2bf1	0.55926424
155	0x3d74f685	0.05980541
156	0x3e210681	0.15725137
157	0x3f4e9e2a	0.8071009
158	0xbde63a81	-0.112416275
159	0x3f64453e	0.89168155
160	0x3f604146	0.875996
161	0x3f42c842	0.7608682
162	0x3f111955	0.5667928
163	0x3f03cea5	0.5148719
164	0xbcfcfba4	-0.03088171
165	0xbf33a31c	-0.7017076
166	0x3f03a2f7	0.5142054
167	0xbe62a2e6	-0.22132453
168	0xbec82dc9	-0.3909743
169	0xbe62149b	-0.22078173
170	0xbecd8c33	-0.40146026
171	0xbe9d27b4	-0.30694354
172	0x3dbb988a	0.09159954
173	0xbe41593e	-0.188817
174	0x3e60cc71	0.21952988
175	0x3ea7528d	0.3268017
176	0x3dcfd48b	0.10147961
177	0xbebfcca1	-0.37460807
178	0xbe980b6b	-0.2969621
179	0x3ea96ac5	0.3308927
180	0xbecdc991	-0.40192845
181	0x3e0fe31d	0.1405148
182	0xbc98d298	-0.018655106
183	0xbef6423a	-0.48097402
184	0x3e55de44	0.20885569
185	0xbf50e448	-0.8159833
186	0xbea780af	-0.32715365
187	0x3daac4b9	0.08338303
188	0x3ec043cb	0.37551722
189	0xbf0bf2eb	-0.5466754
190	0x3e2ea672	0.17055681
191	0x3df917b6	0.121627256
192	0x3f1abbfb	0.60443085
193	0xbf12c04a	-0.5732466
194	0xbefc4efa	-0.49279004
195	0x3e900ddc	0.28135574
196	0x3dd27413	0.10276046
197	0x3eab5a8f	0.33467528
198	0x3e515f54	0.20446521
199	0x3de670ba	0.1125197
200	0xbecaa1bb	-0.39576516
201	0x3eb7a592	0.35868508
202	0x3e90f39d	0.28310862
203	0xbe6dcdf9	-0.23223104
204	0x3ddc1aa5	0.107472695
205	0xbca7e7bb	-0.02049624
206	0x3db8808c	0.09008893
207	0xbe03566a	-0.12825933
208	0x3eab9c5c	0.3351773
209	0xbd43381c	-0.047660932
210	0x3d508667	0.050909426
211	0x3e58fabb	0.21189396
212	0x3f080f8c	0.5314872
213	0x3d4a844f	0.049442586
214	0x3e1c9c29	0.15293945
215	0xbe86d6e5	-0.26335827
216	0xbea17a60	-0.31538677
217	0x3e47cdc9	0.19512095
218	0x3f36bd50	0.7138262
219	0xbe9c0e3e	-0.30479616
220	0xbeffcd78	-0.49961448
221	0xbdac25e2	-0.08405663
222	0xbd12796d	-0.035760332
223	0x3f12695e	0.5719203
224	0xbda18d8c	-0.07888326
225	0xbed77526	-0.42081565
226	0x3e9b679f	0.30352494
227	0x3f3443ac	0.7041576
228	0x3f03539f	0.5129947
229	0x3db273ea	0.08713515
230	0x3ed243aa	0.4106725
231	0xbf03da13	-0.5150463
232	0xbeb1a6ee	-0.3469767
233	0x3e1a3569	0.15059437
234	0xbebf24d3	-0.37332782
235	0xbe8ae2df	-0.27126214
236	0xbb13114b	-0.0022440727
237	0xbe5dd663	-0.21663813
238	0xbe85c57a	-0.26127225
239	0x3f20b701	0.6277924
240	0xbeb6407f	-0.35596082
241	0x3f641377	0.890922
242	0x3e22e372	0.15907076
243	0x3f68ab7f	0.9088668
244	0x3f2af09a	0.6677338
245	0xbe95ae35	-0.29234472
246	0x3ef7268a	0.4827159
247	0x3cff59b4	0.031170703
248	0xbeec3e14	-0.46141112
249	0xbdb77de3	-0.08959558
250	0x3e820857	0.25396988
251	0xbe2f5cf4	-0.17125303
252	0x3f2de924	0.6793387
253	0xbe81948b	-0.25308642
254	0xbf1f86a6	-0.6231483
255	0x3ec3d266	0.3824646

l1.bias f4 [8]
0	0x3f29f586	0.66390264
1	0x3f64e137	0.8940615
2	0x3f03245e	0.51227367
3	0x3f88ecc4	1.0697255
4	0x3eeb5665	0.4596435
5	0x3f532b4c	0.8248794
6	0x3f500e2d	0.8127163
7	0x3fc67e83	1.5507358

l2.weight f4 [8, 8]
0	0x3f42113f	0.75807565
1	0x3f2f6bbf	0.6852378
2	0xbf9e5618	-1.2370024
3	0xbefa4462	-0.48880297
4	0xbe2d2e69	-0.16912235
5	0xbebd56c4	-0.3698026
6	0x3f5f23b6	0.87163866
7	0x3fb87a24	1.4412274
8	0x3fb50b67	1.4144105
9	0x3fd82555	1.6886393
10	0xbf57f198	-0.8435302
11	0x3f2d9f76	0.67821443
12	0xbf52f63f	-0.8240699
13	0xbdbeeec4	-0.09322885
14	0xbf830025	-1.0234419
15	0x3f72791c	0.9471605
16	0x3eeafb99	0.4589508
17	0x3f08e251	0.5347033
18	0xbf877d4f	-1.0585116
19	0x3f5209f1	0.8204642
20	0x3f3e96e1	0.7444897
21	0x3f95e9a7	1.171193
22	0x3f048a84	0.5177386
23	0xbf633283	-0.8874895
24	0xbe88be43	-0.26707658
25	0xbe06b3b4	-0.13154489
26	0xbebc32bb	-0.36757454
27	0xbcb6e2b0	-0.02232489
28	0xbded09b6	-0.11574118
29	0x3e4aa098	0.19787824
30	0x3e375769	0.17904438
31	0xbeef8556	-0.46781415
32	0xbf7c23cd	-0.9849213
33	0x3f8ccb0f	1.0999469
34	0xbf28427e	-0.6572646
35	0xbdb02cf5	-0.08602325
36	0x3ed5354a	0.4164222
37	0x3da84b12	0.082174435
38	0x4001538a	2.0207238
39	0x3fdeb13c	1.7397838
40	0x3f90cb02	1.1311953
41	0x3f919e46	1.1376426
42	0xbf53407a	-0.8252026
43	0x3f2ac4d9	0.66706616
44	0x3f47c0cb	0.78028554
45	0x3f070eeb	0.5275714
46	0xbf505ae8	-0.8138871
47	0xbf1d3154	-0.61403394
48	0xbf865747	-1.0495385
49	0x3f2fd9cb	0.686917
50	0x3f21e5ad	0.6324108
51	0x3fb09e8a	1.3798382
52	0xbfb39958	-1.4031172
53	0x3fef75bf	1.8707808
54	0xbf2a5fa8	-0.6655221
55	0x3efe314a	0.4964698
56	0x3f1db4ff	0.61604303
57	0xbf88114d	-1.063028
58	0x3ff073a3	1.878529
59	0x3fd0e9d2	1.6321356
60	0x3fc4e00e	1.5380876
61	0xbfc10105	-1.5078436
62	0xbe06181b	-0.13095133
63	0x3f800fcd	1.0004822

l2.bias f4 [8]
0	0x3efece4c	0.49766767
1	0x3ea8d65d	0.32976046
2	0xbd081806	-0.033226036
3	0xbe9721cb	-0.2951797
4	0x3f75482e	0.9581326
5	0xbdb6490e	-0.08900653
6	0x3f62d608	0.88607836
7	0x3f350b9a	0.7072083

l3.weight f4 [17, 8]
0	0xbfe1e03b	-1.7646555
1	0x3d645b45	0.055751104
2	0x3ecf9e48	0.40550447
3	0xbe109cd0	-0.14122319
4	0xbf22593b	-0.63417405
5	0x3e9a19c8	0.30097795
6	0x3f0d91e6	0.5530075
7	0xbf6abafc	-0.91691566
8	0xbf0d8d2a	-0.55293524
9	0xbf510506	-0.8164829
10	0x3d228682	0.039679058
11	0x3e6f250f	0.2335398
12	0x3ea324ea	0.318641
13	0x3eb02488	0.3440287
14	0xbfaeb606	-1.3649299
15	0x3e519802	0.20468143
16	0xbfff8b36	-1.9964359
17	0x3f214224	0.6299155
18	0xbf3409a3	-0.70327204
19	0xbe8420b3	-0.25806198
20	0xbfc3114e	-1.5239656
21	0xbe673251	-0.22577788
22	0x3eb136b3	0.34612045
23	0x3e710467	0.23536836
24	0xbf1372e7	-0.575972
25	0x3ee1e2fb	0.44118485
26	0xbe95763f	-0.29191777
27	0x3e5df45a	0.21675244
28	0xbebec4a6	-0.37259406
29	0x3deda391	0.116034634
30	0xbd0d28bb	-0.03446267
31	0xbef27cbe	-0.47360796
32	0xbf97c97f	-1.1858367
33	0xbf8917b5	-1.071036
34	0xbf27da09	-0.6556707
35	0xbbda5877	-0.006663378
36	0xbf8ec5da	-1.115413
37	0xbfc29a12	-1.5203269
38	0x3f9183d8	1.136836
39	0x3d50ecee	0.051007204
40	0xbedbc41f	-0.42923066
41	0x3eb73bc0	0.35787773
42	0xbff06b73	-1.8782791
43	0xbba4ea66	-0.0050328253
44	0xbd2751ee	-0.04084962
45	0xbfdfe778	-1.7492514
46	0x3eaf0715	0.3418509
47	0x3e0b83da	0.13624516
48	0x3d64926e	0.05580371
49	0x3ec24c96	0.37949055
50	0xbeeb3c42	-0.4594441
51	0xbcaf2247	-0.02137865
52	0x3e9387a7	0.28814432
53	0xbf7b62c0	-0.98197556
54	0x3ebc638e	0.36794704
55	0xbfe33044	-1.7749104
56	0xbfe31b6d	-1.7742745
57	0x3f0c7603	0.5486757
58	0x3de5e106	0.112245604
59	0xbe3a157e	-0.18172261
60	0xbfbd03b4	-1.4766755
61	0x3e096c41	0.13420202
62	0xbfd040dd	-1.6269795
63	0x3f185a62	0.59512913
64	0x3ee1cf40	0.44103432
65	0xc00f65b6	-2.240583
66	0xbfe2b5db	-1.7711748
67	0x3e681408	0.22663891
68	0x3f218a5c	0.63101745
69	0xbf77a6c2	-0.9673883
70	0xbeb66f8c	-0.3563198
71	0xbc9867a8	-0.018604115
72	0xbd178863	-0.036995303
73	0xc01ff844	-2.499528
74	0x3c8cb77a	0.017177332
75	0xbdd06e14	-0.10177246
76	0x3f4447c4	0.76672006
77	0xbfdcd170	-1.7251415
78	0x3edef7a2	0.43548304
79	0xbfae14e2	-1.3600123
80	0xbf924676	-1.1427753
81	0xbf81d3ee	-1.0142801
82	0xbfed297d	-1.8528286
83	0xbe805d37	-0.25071117
84	0xbfd8b8a9	-1.6931354
85	0xbf4999d7	-0.78750366
86	0x3e4156b3	0.1888073
87	0x3f762ae5	0.961592
88	0xbfb70e54	-1.4301248
89	0xbf77d1e2	-0.9680463
90	0x3effcf41	0.4996281
91	0x3cc637df	0.024196563
92	0xbf963a1d	-1.1736485
93	0x3e3dfa32	0.18552473
94	0xbe0b9fda	-0.13635197
95	0x3ec6b116	0.3880698
96	0x3e5f5be6	0.218124
97	0x3f094be4	0.53631425
98	0xbfaadebe	-1.3349226
99	0x3d108c3d	0.03528999
100	0xbe617f2d	-0.2202117
101	0x3ea10852	0.3145166
102	0xbf4dbe5b	-0.80368584
103	0xbf9e8596	-1.2384517
104	0xbf9f8158	-1.2461348
105	0x3e9a4c7f	0.30136487
106	0x3f5c5ad3	0.86076087
107	0xbe3cc43f	-0.18434237
108	0xbf33ab78	-0.70183516
109	0x3f2ea75d	0.68224126
110	0xbf8a5c2f	-1.0809382
111	0xbf0388b3	-0.5138046
112	0xbdc1ea47	-0.09468513
113	0xbfd74a9d	-1.6819645
114	0x3ce0ce64	0.027442165
115	0x3e2486e2	0.16067079
116	0x3e814bfd	0.25253287
117	0xc0080fa6	-2.125955
118	0xc0099dc2	-2.1502538
119	0x3f456b3f	0.7711677
120	0xc009db2f	-2.154003
121	0xbfdf6601	-1.7453004
122	0xbfae0ba2	-1.35973
123	0xbe49fd3c	-0.19725507
124	0x3eb745b9	0.35795382
125	0xbfd9308f	-1.6967944
126	0xbe35eb4d	-0.17765541
127	0x3f366a44	0.712559
128	0x3f3bb16d	0.73317605
129	0x3cd7865a	0.026309181
130	0xbfddd41f	-1.7330359
131	0x3e791e6b	0.2432801
132	0x3ee45752	0.4459787
133	0xbfd68bdc	-1.6761432
134	0xbfad8fa2	-1.3559458
135	0xbefed688	-0.4977305

l3.bias f4 [17]
0	0x3dd1dc00	0.1024704
1	0x3e1ae519	0.15126456
2	0xbe8a3a99	-0.2699783
3	0xbebc2a44	-0.36750996
4	0x3e7b275e	0.24526736
5	0xbeaa815d	-0.3330182
6	0x3c3b3e26	0.011428392
7	0xbeaf0f2c	-0.34191263
8	0xbeb6bf64	-0.35692894
9	0x3f57026a	0.8398806
10	0x3e937ded	0.2880701
11	0xbe03481e	-0.1282048
12	0xbe6afd71	-0.22948243
13	0x3e5c1470	0.21492171
14	0x3e244e5c	0.16045517
15	0xbe5c5f85	-0.21520813
16	0xbdaea5e0	-0.08527732
